# ultra_nano_ablation_no_mobilevit.yaml
task: detect
nc: 1
scale: "s"

backbone:
  - [-1, 1, Conv,     [16, 3, 2]]    
  - [-1, 1, DWConv,   [32, 3, 2]]    
  - [-1, 1, ECA,      [32, 3]]       
  - [-1, 1, C2f,      [32, True]]    

  - [-1, 1, DWConv,   [64, 3, 2]]    
  - [-1, 1, CoordAtt, [64]]          
  - [-1, 1, C2f,      [64, True]]    

  - [-1, 1, DWConv,   [128, 3, 2]]   
  - [-1, 1, C2f,      [128, True]]   

  - [-1, 1, DWConv,   [256, 3, 2]]   
  - [-1, 1, SPPF,     [256, 5]]      

head:
  - [-1, 1, nn.Upsample, [None, 2, 'nearest']]  
  - [[11, 8], 1, Concat, [1]]                   
  - [-1, 1, C2f,         [128, True]]           

  - [-1, 1, nn.Upsample, [None, 2, 'nearest']]  
  - [[14, 6], 1, Concat, [1]]                   
  - [-1, 1, C2f,          [64, True]]           

  - [-1, 1, Conv,        [64, 3, 2]]            
  - [[17, 13], 1, Concat,[1]]                   
  - [-1, 1, C2f,         [128, True]]           

  - [-1, 1, Conv,        [128, 3, 2]]           
  - [[20, 10], 1, Concat,[1]]                   
  - [-1, 1, C2f,         [256, True]]           

  # MobileViT Ablation: Replace with Identity
  #- [7, 1, Identity, []]                         # 23'

  # Final detection head
  - [[16, 19, 22], 1, Detect, [nc]]              # 24
